python-official-statistics/results/model.pth (torch, 89871 bytes, 8 tensors)

conv1.weight f4 [10, 1, 5, 5]
00000000: 8d0c d8bd d31a 783e 3c19 ef3d 52fa 753e
00000010: 0b7a 483e 935a 5c3d 6ecd 1e3e fefe 013e
00000020: 769c 2b3e 6fb2 443d d571 90bd 4a36 7cbd
00000030: 82aa 8bbc ac67 83bd dd4f 1f3e 2648 50bd
00000040: 7e8c 42be 8353 8abe b942 4bbe 0676 38be
00000050: b9c0 1cbe 6864 e5bd 4a96 75bd 00d2 7cbd
00000060: 2fa8 86be 3989 913e 4c2e a13e b333 c63e
00000070: db58 843e 125d dcbd a6f9 e3bd e670 eb3c
00000080: 4b3d b33e 985b 5e3e 2be6 923e eca2 3fbe
00000090: c80f a23d 51ee adbd 71fb 773e 7dca 2c3e
000000a0: b90c 9ebe 259e c0bd 91d9 62be 4ad6 63bd
000000b0: f2cc bdba 186c 76be 290a bfbe 64ef 81be
000000c0: 6799 80bd e261 7dbd 63f9 a73e 8335 bc3e
000000d0: fad2 473e 20be edbc e429 303e 3256 993d
000000e0: e0d6 04bd 30d8 943e 4e41 7e3e a322 753e
000000f0: e6f4 32be 6008 86bc 1c4e b63d f5f5 d43d
00000100: e1e3 1bbe 5c85 2ebe 6c4f 103e dbf2 9e3c
00000110: 5f18 f73d 6a4f 43bd 09fb ab3c ea89 833d
00000120: f2d6 dd3d 4bee 9a3d 06de 8cbe c5b8 113e
00000130: 35a6 00be daea 31be 01a7 29bd 6642 76bd
00000140: c116 333e 7d71 a7bd 4d61 4fbe 0a8f f13d
00000150: e4bb eabc 743f 3a3e a051 073e a780 03be
00000160: b861 bc3d ebd0 e43d 8f38 8fbd 0ec5 12bb
00000170: cb41 263e 5d78 203e 78c0 413c 087b e63c
00000180: 9205 993e 00b9 853d 7ade 693e 5795 3f3e
00000190: 273a 11be 7648 18be 4b26 863e 8ef0 0f3e
000001a0: c223 5d3e f686 da3d bb14 443e c449 b63e
000001b0: 6529 c63e 423c 49bd a7dc b63d 619f 583e
000001c0: 7356 6e3e 04f3 603e fea8 b5bd d629 25be
000001d0: 66c5 2dbe 727b 2f3b 22a6 843e d572 32bd
000001e0: 86aa b9bc e5b6 5fbe 3dff 65be ee0d 8cbb
000001f0: afd3 4b3e d8f1 8f3e 9512 303b 64d0 273e
00000200: 8e15 783e b03d f03d 25c7 4a3e d0ec 803e
00000210: c7c6 5f3e 7552 bf3d a221 21be 4c6d 40be
00000220: ff9d debd a3c5 63bb 3da2 8bbd baa2 003e
00000230: 0d86 443c f7e6 a4bd 4441 023e 67cb 3b3e
00000240: ec83 8f3e 8572 da3d 4ca9 7fbd 7800 843e
00000250: 8c9b 953d 7406 ad3d 9f07 9dbe f7bb 86be
00000260: fd03 24be 773c 723d 48b4 ae3e 4a61 93be
00000270: 7726 83be e910 d83d 3e99 8a3e a1a3 ab3e
00000280: c0cb a1be 6f70 e3bc c8c1 9e3d f49a 8c3e
00000290: 72c4 813d 6b34 72be 2301 e6bc 1c8c 9d3e
000002a0: 6bd9 a83e 6918 473e 384b 3d3e 0b14 923e
000002b0: 69ae 933e 4e5e 0f3e 9877 efbd 204d d63d
000002c0: b811 e2bd 3dd7 9dbd c0e4 82be c525 21be
000002d0: cd6c 0dbe e992 d83d 7fca 86be 02a8 8ebe
000002e0: 623a 1abe ec1c a1bd a718 7d3d 55d6 92bd
000002f0: 4c71 d9bd 8697 2c3c 5f85 553e 2145 7abd
00000300: 0115 823e 270d a03e aa4f ad3e 562b 44bd
00000310: 4c4e 543e 4485 7d3d 70e3 af3e a87f 793c
00000320: 6596 6f3e 059d 153e 04d0 893c 154d 02be
00000330: 4962 0cbe f8a1 753e d04b 4c3e ec66 823d
00000340: 2983 b2be ba9d 14bd a2a3 b13e e878 b03e
00000350: 57f4 0c3e ac39 96be bf56 5bbe 16e9 aa3e
00000360: 053b f83b 76d1 653e a3c2 67be 84ce 5cbe
00000370: 9b9b 5a3e cd38 c1bc fed9 2eba 8f9f f43d
00000380: 4d8f 073e 388d 373e 60cb 413c 6be8 21bd
00000390: f2f4 a43e e3b9 943d 97ec f0bd 4c45 863d
000003a0: 90ad d4bd 5abd 193e eaba 413e de5d 6abe
000003b0: 5e17 7cbe 8152 e4bd 1ffa 10bd fbce 29bd
000003c0: cc3f 21be 6cb4 01be 917c 9fbe 7c0a 8bbe
000003d0: ac1c 74be 1e1a 2f3e 96bf 083e d5d3 cabd
000003e0: c8a3 8ebd a4a5 e3bc
-0.10549269 0.24228983 0.11674735 0.24021271 0.19577806 0.053797316 0.15508053 0.12694928
0.16758904 0.04802173 -0.07052962 -0.06157521 -0.017049078 -0.06416258 0.15557809 -0.050850056
-0.18998906 -0.2701684 -0.19849671 -0.18013772 -0.15307893 -0.112007916 -0.05995778 -0.06172371
-0.2630019 0.28425005 0.31480634 0.38711318 0.2584904 -0.10759939 -0.11131601 0.028740358
0.350077 0.21714628 0.2869123 -0.18714494 0.07913166 -0.08492721 0.24217011 0.16874118
-0.30869082 -0.09405164 -0.22153307 -0.055624284 -0.0014480634 -0.24064672 -0.3731244 -0.25377953
-0.06279259 -0.061860926 0.32807454 0.36759576 0.19514075 -0.029021323 0.1720348 0.074871436
-0.032431483 0.29071188 0.248296 0.23938994 -0.17476234 -0.016361415 0.08901617 0.10398475
-0.15223648 -0.1704306 0.14092797 0.019402912 0.12065195 -0.047683157 0.020993726 0.064227894
0.10832013 0.07564982 -0.2751314 0.1423064 -0.12563403 -0.17374745 -0.041419033 -0.060121916
0.17489149 -0.08175943 -0.20251961 0.11794861 -0.028654046 0.18188268 0.13214731 -0.12842046
0.09198326 0.111726604 -0.069932096 -0.0022395286 0.16236036 0.15670915 0.011825673 0.028134838
0.29887062 0.065294266 0.22838774 0.18709312 -0.1418234 -0.14871392 0.2620109 0.14056608
0.21595672 0.10670273 0.19148533 0.35603154 0.38703457 -0.049129732 0.08928805 0.21154548
0.23275165 0.21967703 -0.08870123 -0.1612924 -0.16969833 0.002677646 0.25908 -0.043566544
-0.02266432 -0.21847112 -0.22460647 -0.0042741215 0.1990497 0.281142 0.0026866545 0.16388088
0.24226972 0.11730516 0.1980253 0.25180674 0.21853171 0.09341899 -0.15735486 -0.18791693
-0.10869979 -0.0034755252 -0.06818054 0.12562075 0.011994851 -0.080518655 0.1272021 0.1833931
0.28030336 0.10666374 -0.062417313 0.25781608 0.07305059 0.084484965 -0.30669877 -0.2631528
-0.16017146 0.059139695 0.3412192 -0.28785163 -0.25615284 0.105501 0.2707004 0.33523276
-0.3160076 -0.027763573 0.077518046 0.2746197 0.06336297 -0.23652808 -0.028076714 0.30770957
0.32978377 0.19442905 0.18485725 0.28530917 0.28844002 0.14000818 -0.116927326 0.10463929
-0.11038536 -0.07707069 -0.25565147 -0.15737064 -0.13811035 0.10574896 -0.26326367 -0.27862555
-0.15061334 -0.078668445 0.06179109 -0.07169787 -0.10617313 0.010534173 0.20851658 -0.061101083
0.2540665 0.31260034 0.3384984 -0.04789289 0.20732993 0.06189467 0.3435321 0.0152281895
0.23397215 0.1461068 0.016822822 -0.12724717 -0.13709368 0.23987567 0.19950795 0.06367287
-0.34865692 -0.036283232 0.34695154 0.34467244 0.13765083 -0.29340875 -0.2141981 0.33380955
0.007575395 0.22443184 -0.22632842 -0.21563154 0.21348421 -0.023586655 -0.00066700566 0.11944496
0.13238259 0.17924964 0.011828274 -0.03952829 0.32218128 0.072620176 -0.11763876 0.06556186
-0.10384667 0.15013638 0.18918958 -0.2288737 -0.24618289 -0.11148549 -0.035394784 -0.041457158
-0.15746993 -0.12666482 -0.31149724 -0.27156436 -0.23839062 0.17099807 0.13354334 -0.09903685
-0.069648325 -0.027788945

conv1.bias f4 [10]
00000000: a4b5 103d 3cdd 03bd 5982 473e e538 123e
00000010: e21e e43d 04b8 d03c 6676 273e 285f 3f3e
00000020: 491e babd 01e0 223e
0.035329476 -0.032193407 0.19483317 0.14279516 0.11138703 0.02547837 0.16353759 0.18688643
-0.09087808 0.15905763

conv2.weight f4 [20, 10, 5, 5]
00000000: 06b1 b93c 60d4 0fbd bed1 543d 56be 96bc
00000010: 8454 643d c937 15bd ac6c 38ba 2a32 0dbc
00000020: a8ca 4cbc 6d0b 4f3c 7c1c fbbc bfd2 77bd
00000030: a350 c0bd 782e 85bc a4c8 02bd 7050 d2bc
00000040: e837 3ebd 21ed 85bc 302c 1c3c 23e9 c7bc
00000050: 3fb2 63bd f0a0 90bd 0b0d a6bd a904 973c
00000060: a4dd 35bd 4169 513d b8ff 3f3c 6d04 4cbc
00000070: c8f2 ca3d f1ca a03d 9657 3f3c 7005 a1bd
00000080: df68 d1bd a89f 86bd 7a00 c8bd 28cc 7ebd
00000090: b3c6 91bd cae6 bfbd 7650 74bd af85 8fbd
000000a0: 39e7 a5bd 51f6 d6bd f715 e2bd 478e 92bc
000000b0: 5f4c bcbd 22c9 2bbd 33ed bbbd 176d 75bd
000000c0: 30d6 73bd b6a3 81bd e474 b33d 00b5 1cbd
000000d0: 895d 0abc b198 643d 2f04 953d 758a 133d
000000e0: 3984 5fbd 68dc 5dbd 7d4e 99bc c074 3f3b
000000f0: f66a ce3c 7db2 9bbd 7d61 03bd 948d 8f3d
00000100: a94b d8bc 7a81 26bd a6d9 51bb b4da ed3c
00000110: c07a 9c3d ae41 dabd 298d 06bd 42e5 94bd
00000120: 0d36 5fbd a03b 44bd 54b1 0cbd 67d4 193b
00000130: 5d55 5bbd 409a aebd 5b99 93bd 7476 9a3d
00000140: 7435 c4bc 9acf 16bd b1fc 9ebc 2264 39bb
00000150: f3e5 51bd ff38 6abd d10e ed3c eece 073d
00000160: 46f0 0bbb 7f2e b5bd 5d76 2c3c bcfc 0e3d
00000170: 1286 8f3d e299 663b 651d 1bbb 63a6 88bb
00000180: 2a41 46bd 33de a5bd 56fa 983a 6a05 38bc
00000190: 5b22 3c3d 89a3 40bc 3fea 3bbd cc9a 04bd
000001a0: c149 a7bc d327 b3bc 236f f1bd b229 77bd
000001b0: ea6d 9bbd 2184 d9bc 98a0 a9bb 54f1 93bd
000001c0: 420e 67bd 054e 9e3d f627 813d eba1 57bd
000001d0: fbb2 9ebd b5a3 39bd abfe d13d 6287 b2bd
000001e0: 3fb9 fbbd d636 86bc 8a0d 163d 915e 523d
000001f0: ed6f b9bd d5ed 12bc 3c94 01bc d76c 253d
00000200: 358d f53c 91d6 253c f0c4 d93c 6b46 68bd
00000210: 18e5 45bb 2616 b6bc da4e 0a3d f59c 85bc
00000220: 9944 dabd 3af0 173b 199f 95bc d150 a5bd
00000230: 68b2 8cbd 8f20 f7bd 2a25 7cbd dc5f f9bc
00000240: 1e17 67bc f3ae 62bd 17fa 86bd ce3a c53c
00000250: 97c3 263d a5b7 b1bd 440a 163d 0983 143d
00000260: 1f51 88bd 8d8a 46bc de03 6dbd 6139 9e3c
00000270: d928 9abd b4f0 4b3d de66 cb3d eed9 3a3e
00000280: 2a45 e43c 2531 103d 5c29 443d b540 f33d
00000290: 967a 9f3d de7d c9bc f8fc 663a b77f 993d
000002a0: e73e d23d 1530 80bc 68e5 2a3c 0dfe 9ebc
000002b0: 0419 b43d d330 1cbb bc87 afbd 9c82 423d
000002c0: 6489 a7bd 4239 833c 03db adbd a857 193d
000002d0: 5b3a 2c3c 9a95 fb3c ca22 913b 9192 d03d
000002e0: 5591 96bc b5c9 88bd 35f1 9c3c 8a6b 7c3d
000002f0: 0dd0 853d 9b1d 9bbd 95ea ff3c 33a7 aa3c
00000300: c3ac 3abd e7f3 bcbd 87a9 753c f0a3 1fbd
00000310: 7c12 6fbb b073 05be 4567 9cbc f072 0f3d
00000320: 750b ce3c 6b26 863d 61a9 7fbd 1d84 0ebd
00000330: eeb1 c1b9 7b4f 69bc bdeb 253c 9628 a4bd
00000340: 7de1 7eb9 a2c4 5f3d 910a e13d 0bb6 3f3d
00000350: b2a8 09be 8321 183d 205e a73d cb2c 963c
00000360: 7e9a 133b 54a5 72bd e0b9 b93d f015 063e
00000370: e534 e53d 0937 3fbd b8a6 0abd 3e44 103e
00000380: f587 d43d 6d8c 863d abf1 503d c2b2 c43b
00000390: ee68 8f3d 773b 24bd 0d69 e93c 1eba b83c
000003a0: af1b b03c 2718 2abd a9bb a5bd 0e86 963c
000003b0: 6389 90bd de38 a8bd 4fa3 babd 1ca2 70bd
000003c0: 7019 efbc 3214 5bbd af03 82bd 642d d4bd
000003d0: 1b2c bf3c 9417 08bd a122 6bbd 1e52 493b
000003e0: de2f 45bd 4328 3b3d 1132 29bc 8e36 c0bd
000003f0: 576f acbd a151 43bd 7914 cfbc a3eb 8dbd
0.02266742 -0.035114646 0.05195784 -0.018401306 0.055744663 -0.036430154 -0.00070352363 -0.008617917
-0.012499489 0.012637001 -0.03065323 -0.060503718 -0.0939038 -0.01625751 -0.031929627 -0.025673121
-0.046440035 -0.016348423 0.0095320195 -0.02440316 -0.05558991 -0.070619464 -0.081079565 0.01843484
-0.044400826 0.05112577 0.011718683 -0.012452227 0.09909588 0.07851208 0.011678597 -0.07862365
-0.10225081 -0.06573421 -0.09765716 -0.062206417 -0.07117977 -0.093701914 -0.059647046 -0.0700792
-0.08100743 -0.104962 -0.11039346 -0.017890109 -0.09194254 -0.041939862 -0.091761015 -0.05991849
-0.059530437 -0.063300535 0.087625295 -0.038258553 -0.008445152 0.05580968 0.072761886 0.036020715
-0.054569457 -0.054165274 -0.018714184 0.0029213876 0.025197487 -0.07602403 -0.032075394 0.07009426
-0.026403265 -0.040650822 -0.0032020598 0.02903495 0.076406 -0.10657059 -0.032849465 -0.0727029
-0.054494906 -0.047908425 -0.0343488 0.002347255 -0.053548206 -0.085255146 -0.072069846 0.075421244
-0.02395127 -0.036819078 -0.019407602 -0.0028288444 -0.051244687 -0.057183262 0.02893773 0.033156328
-0.002135293 -0.08846759 0.010526267 0.034908995 0.07007994 0.0035186936 -0.0023668644 -0.0041702255
-0.04840199 -0.08099022 0.0011671286 -0.01123176 0.0459312 -0.01175774 -0.04587769 -0.03237419
-0.02042091 -0.021869576 -0.11788776 -0.060342498 -0.07589324 -0.026552262 -0.005176615 -0.07223764
-0.05641008 0.07729725 0.0630645 -0.05264465 -0.077489816 -0.04532214 0.10253652 -0.087172285
-0.12291192 -0.01638357 0.036634006 0.051359717 -0.09054551 -0.008967836 -0.007908877 0.040387
0.02997456 0.010121957 0.026583165 -0.05670778 -0.0030196365 -0.022227358 0.033766605 -0.016310195
-0.10657615 0.0023183958 -0.01826434 -0.08072055 -0.06869966 -0.12066757 -0.06155888 -0.030441217
-0.014104633 -0.055342626 -0.065906696 0.024075892 0.040713873 -0.086776055 0.036630884 0.036257777
-0.066560976 -0.012117994 -0.057865016 0.01931447 -0.07527322 0.0497901 0.0993173 0.18247196
0.027865011 0.035203118 0.047891006 0.11877576 0.07787053 -0.024596151 0.0008811499 0.07495063
0.10265904 -0.015647927 0.010430671 -0.01940825 0.08793834 -0.0023832812 -0.08570811 0.04748784
-0.08180502 0.016018514 -0.08489039 0.03743711 0.01051196 0.030710984 0.004429196 0.10184205
-0.018379847 -0.066790976 0.019157985 0.061625995 0.06533823 -0.07574006 0.031239787 0.02083168
-0.045574915 -0.09226208 0.014994032 -0.038974702 -0.0036479523 -0.13032413 -0.019092211 0.035021722
0.025151948 0.065502964 -0.06241739 -0.03479396 -0.00036944397 -0.014240141 0.010127005 -0.08015554
-0.00024307329 0.054630883 0.109883435 0.04680447 -0.13443258 0.037141334 0.0817225 0.018331906
0.0022522504 -0.0592397 0.09068656 0.13094306 0.111917295 -0.046683345 -0.0338504 0.14088532
0.10377494 0.06569753 0.051011723 0.006002755 0.070024356 -0.040095773 0.028492475 0.022549685
0.021497576 -0.04152694 -0.08092434 0.01837447 -0.070574544 -0.082139716 -0.0911318 -0.05874835
-0.029186934 -0.053486057 -0.06348359 -0.1036022 0.02333646 -0.03322561 -0.05740607 0.0030719112
-0.048141353 0.045692693 -0.010326878 -0.093854055 -0.08419674 -0.04768527 -0.025278317 -0.0692971

conv2.bias f4 [20]
00000000: 4031 e93c 3ab6 52bd de9e 7dbc ffda 27bd
00000010: 5497 50bd 73c0 9cbc adac ae3c 9952 0dbd
00000020: 9027 84bd 2972 2b3d dd7c 09bd 27cf 9cbd
00000030: 453a e9bc fafc dbbb e03d 6abd 6d47 5ebb
00000040: 2290 1dbd 36e3 c2bc 0bab 903c 0cfe 233c
0.028465867 -0.051443316 -0.015479771 -0.040980335 -0.050925568 -0.019134736 0.021322573 -0.0345026
-0.064528584 0.04185692 -0.033566345 -0.07656699 -0.028470168 -0.0067135068 -0.057187915 -0.0033917085
-0.038467534 -0.023789983 0.017659685 0.0100093

fc1.weight f4 [50, 320]
00000000: d257 cb3a 65e9 eebc e707 cd3d 627d 643d
00000010: db93 51bd 1397 123d 73bb 283c bc7b b63b
00000020: ac41 66bd e8a7 51bc 1587 3bbc a2ca f7bc
00000030: 089e 8f3b ce11 c13d e962 243d 3076 433d
00000040: 6c5e 5abc 283a 41bd e23b 1f3d 81fe ca3c
00000050: c176 2e3c 2e54 fdbc 5a7a 9b3d a738 a63d
00000060: 6a01 283c ecb1 8739 76d2 943c d93e 4f3d
00000070: b76c debd 419e 55bd 110a df3b b5f3 9cbc
00000080: 969f 063d d115 963c b62b 01bc 3635 1f3d
00000090: 38c2 de3c 64a3 e73c e1d7 30bd 3fa6 4bbd
000000a0: 511e 33bd 326d 23bd f2be 6a3d a1a1 c1bc
000000b0: 9df9 3bbd 251c 313d 5fe7 803d c8b8 b43c
000000c0: 8b35 f4bc dcff 0e3d 3bff f2bc 89d1 d43c
000000d0: 3fdb 11bd 9858 dbbc 0425 85bd b505 46bc
000000e0: f371 d0bd ac2d f03b e529 3e3d fb66 3bbd
000000f0: e3c1 873d 4438 033e 076d 983d 0d07 153c
00000100: 9613 61bd 7164 1bbd 691e 03bd 14a5 e3bb
00000110: b979 25bd df9e 253c 1d46 34bb 46bf 04bd
00000120: 4463 0abd 9945 fc3c 906d 3cbc cbb5 80bd
00000130: 7155 e33c 745e ec3d f6e3 e03c 91cc afbd
00000140: d22c 04bd 9d85 263c 8148 b4bc d37d 083d
00000150: 3d05 ddbc 5305 9c3a 528d 9cba d38c d6bc
00000160: df4f 0e3d 82e4 a53d e211 7b3d dd67 d8bc
00000170: 028c 0b3d aeae d63c 430c 27bd 50e3 8ebd
00000180: 3600 443c 3dc7 72bc 4a4e 933c 978c 6c3d
00000190: 7c00 23bd cbe6 46bd f742 493d 6958 303d
000001a0: cb46 273d bda8 ef3c 308d b2bc a22b 9f3c
000001b0: f1b5 6e3d d12c 0e3d ac5a 773d 37de f63c
000001c0: 944f 2f3c 4c6c e7bb 182b 463c d119 b23d
000001d0: c425 893c 350a 9f3d e783 023d 4dd5 993c
000001e0: 3af1 ee3a 4316 b83c 1ac1 db3c 4b5f 3ebc
000001f0: 01ac d7bd 5ad6 57bd 4a4d 073d e2f6 f0bc
00000200: da8e 493d aa30 453d f748 e63c 58d6 f23c
00000210: 9dd9 223d b279 febc d116 9abc a3b5 173d
00000220: ccfe 04bb 415c f73c 43fc 52bc a013 64bb
00000230: e744 abbc 1a49 0bbc 88a7 a33c 5813 563d
00000240: 95c1 7b3c 5294 8fbb 0958 593d ba8c ddbc
00000250: 5a64 66bc ed99 48bc 44dd 7c3c 7b35 d7ba
00000260: d8ab c6bc f821 adbc b30f e3ba 08d7 81bc
00000270: d60f aabb 23a6 e83c 3cb5 e8bc d117 46bc
00000280: 824e f4bc 8883 ab3c fb2a 493d b30d acbc
00000290: 4506 3ebd c83c 483d 07e5 cbbc ed25 153d
000002a0: 42c1 7b3d fc4f 683b 83e2 5e3b 8d49 c7bc
000002b0: f161 833d 0314 22bd e21a 043b ed37 0bbd
000002c0: 7b61 aa3c 5a56 4f3c 641d 653d 4ee4 6dbc
000002d0: 4ffd 0b3d e88f 9abc 5ee6 253d c33b 0cbd
000002e0: fa55 533c 24f3 f43c b69a 22bd f744 80bd
000002f0: 4b56 94bc 2099 8dbc 9e69 40bd 71bd 80bd
00000300: e6b7 933c ce9b 4d3d 5f76 633c c426 433c
00000310: 3300 8bbb 834b d6bc cdbc d1ba 9e56 06bd
00000320: 0b41 393d 1c57 e03c 350f 493d 57e7 d2bc
00000330: d698 b5bd 791e b13a fdbe e23c de2c 7d3c
00000340: 7ff0 a33d c175 fe3b c390 0e3d c94b 313c
00000350: 3679 1ebd f22d 44bb f4c9 7cba 92f3 afbc
00000360: 40b3 edbc ffb7 133d 12ec 313d 3dcf 1d3c
00000370: 7f92 ae3d a4b7 373d 95f4 20bd f0e8 7dbd
00000380: 473c 1d3d 4d17 16bc 995b 6c3b 08a6 a6bc
00000390: 012d 57bd f6ba d63c 2685 ee3c d582 b3bc
000003a0: 6077 eebc e6f7 463c d67a e7bc 1fc8 7abb
000003b0: a7b8 ca3d 7966 763d 8de3 82bd f438 1ebd
000003c0: 0330 15bd 1b71 443d 1630 1cbc 2ce7 773d
000003d0: 00e0 7ebd ba5e 8a3a b82b 0d3d 2775 84bd
000003e0: 03d1 fbbc 01e7 7abc 3f1a 2bbc b101 4bbd
000003f0: 3251 0dbc 1b1e 033d e4b0 9cbd 61d3 7bbd
0.0015513843 -0.029164026 0.10011273 0.055783637 -0.051166397 0.035788607 0.010298598 0.0055689495
-0.056214973 -0.01279638 -0.01144578 -0.03024799 0.0043828525 0.09427224 0.04013339 0.047720134
-0.013328176 -0.047174603 0.038875468 0.02477956 0.01064843 -0.030923929 0.07591696 0.08116274
0.010254243 0.0002588177 0.018166762 0.050597046 -0.108605795 -0.052152876 0.00680662 -0.019159177
0.032867037 0.01832095 -0.007883957 0.038869105 0.02719222 0.028276153 -0.04317463 -0.04971909
-0.043730084 -0.03989906 0.057311006 -0.023636641 -0.045892347 0.04323973 0.062941305 0.022060767
-0.029810688 0.034911975 -0.029662719 0.02597882 -0.03560948 -0.026775643 -0.06501201 -0.012086322
-0.10177984 0.0073296633 0.046426672 -0.045752507 0.06628778 0.12814432 0.0744267 0.009095919
-0.05495032 -0.037937585 -0.032011423 -0.006947169 -0.040399287 0.010108679 -0.002750761 -0.032408975
-0.033786073 0.030794905 -0.011500731 -0.06284674 0.027750703 0.11541453 0.02745245 -0.0858394
-0.032269306 0.010163692 -0.022007229 0.03332312 -0.026980037 0.0011903442 -0.0011943972 -0.026190197
0.03474414 0.08100225 0.06129635 -0.026416713 0.03406907 0.02620634 -0.040783178 -0.0697695
0.011962941 -0.01481801 0.017981667 0.057751264 -0.039795384 -0.048559945 0.04913613 0.043053064
0.040838998 0.029255265 -0.02179584 0.019429985 0.05827898 0.03471071 0.060389206 0.030135257
0.010700125 -0.0070624705 0.012095235 0.0869633 0.01674164 0.07765619 0.031864073 0.018778468
0.001822985 0.022471553 0.026825476 -0.011619399 -0.10530854 -0.052694656 0.033032693 -0.029414598
0.0492085 0.048142113 0.028110964 0.029643223 0.039758313 -0.031063888 -0.018809708 0.037038457
-0.0020293472 0.030195357 -0.012877527 -0.0034801736 -0.020906879 -0.0085013155 0.019977346 0.05226454
0.015365978 -0.004381695 0.053062472 -0.027044643 -0.014062012 -0.01224373 0.015433613 -0.0016419137
-0.024251863 -0.021134362 -0.0017323404 -0.015849605 -0.005189876 0.028399533 -0.028406732 -0.012090639
-0.029822592 0.020936742 0.049113255 -0.021002626 -0.046392698 0.04888609 -0.024889482 0.036413122
0.061463602 0.0035448065 0.0034009523 -0.024327064 0.06415165 -0.039569866 0.0020157625 -0.03398888
0.020798435 0.012654865 0.055936232 -0.014519764 0.03417712 -0.018867448 0.0405029 -0.03423668
0.012898916 0.029901095 -0.039698325 -0.06263154 -0.018107554 -0.01728493 -0.046975724 -0.06286133
0.018032026 0.050197415 0.013883202 0.011911098 -0.004241967 -0.026159054 -0.0016001702 -0.03279745
0.045228045 0.027385287 0.04908677 -0.025745077 -0.08867042 0.001351311 0.027678961 0.015452592
0.08004855 0.007765502 0.034806024 0.010821291 -0.038689815 -0.0029934612 -0.00096431305 -0.021478448
-0.029016137 0.036064144 0.043438025 0.009631929 0.08524036 0.044852868 -0.03929575 -0.061989725
0.038387563 -0.009160829 0.0036065339 -0.020342842 -0.052533153 0.026212197 0.029116224 -0.021912972
-0.029109657 0.0121440645 -0.028256815 -0.0038266254 0.09898501 0.06015632 -0.06391058 -0.038628533
-0.03642274 0.04795943 -0.009532949 0.060523197 -0.06222534 0.0010556795 0.03446552 -0.064676575
-0.030739313 -0.015313865 -0.010443269 -0.04956216 -0.0086253155 0.032011133 -0.07650927 -0.061480884

fc1.bias f4 [50]
00000000: e931 393d ea62 ce3c 5436 4abb 3e7b ebbc
00000010: 10ae cd3b 4d62 34bb a193 2b3d 2008 073d
00000020: 8bfa 26bc 0a0b 3abc da5e 4a3b 9705 00bd
00000030: a50c 913d 5427 713c 926e 673d 0f88 04bd
00000040: ab66 44bb 7fa0 673d 1919 993c a771 9d3d
00000050: 3e65 6a3d f927 1b3c a428 223d 28e8 473a
00000060: 3dbc 13bd 049e 81bc 1b20 d7bc e213 553d
00000070: 3c35 0d3c 54c4 49bd b52c 08bd c161 4d3d
00000080: 744f dfba 67bc c9bc 21eb 563d c519 443b
00000090: 2083 92ba 9074 9c3d a6c2 3c3d f148 57bd
000000a0: abcf ce3a bdee 123c 0bf7 7bbd de5f 9ebc
000000b0: 21e1 823d db32 8d3c 9627 713d b11a 2c3c
000000c0: d117 f5bb d51f b3bb
0.045213614 0.02519365 -0.0030855136 -0.02874529 0.0062768534 -0.0027524412 0.041888837 0.032966733
-0.01019157 -0.011355171 0.003087929 -0.03125533 0.0708249 0.014718849 0.056501932 -0.032356318
-0.0029968421 0.056549545 0.018688725 0.07687693 0.05722546 0.009469979 0.03958954 0.00076258415
-0.03606819 -0.015822418 -0.026260426 0.052020915 0.008618649 -0.0492595 -0.03324576 0.050142054
-0.0017037229 -0.02462597 0.05247033 0.0029922586 -0.0011177994 0.0763942 0.04608407 -0.052559797
0.0015778443 0.008968052 -0.061514895 -0.019332822 0.06390596 0.017236164 0.058875643 0.010504411
-0.007479646 -0.005466441

fc2.weight f4 [10, 50]
00000000: 5ece 71be 2217 45be 2d29 02be fbf9 13be
00000010: e431 373c 76bd 873c 5ad0 cbbd b2df 09be
00000020: 5864 ed3d a496 a53d ccb7 3c3d fefb 88bd
00000030: 320f 563e ccfc 803e 6a03 043e e618 6bbd
00000040: c6ce 053e ed65 7ebe 028a 18be 52f4 4bbe
00000050: 38cd 2bbe a20d 3ebe 5992 30be de1e 6abe
00000060: 7116 413e 9258 923d 8a6b a7bd c945 e6bd
00000070: 63ba 0e3e 4116 543d fe5d 22be 1f00 143e
00000080: b441 ef3d f6e3 a13b ae7d abbd 2a78 4cbe
00000090: a2dc 0cbe 23b6 34be afc1 e23d 48d7 c2bd
000000a0: e0dc e03d e8fd 7f3e 302b 1ebd 649e 9cbd
000000b0: 0624 143e 7e9e 293d 9921 413e 3ccf 6f3e
000000c0: cca0 1dbe d019 ff3d 922b ae3d 1ac0 1b3e
000000d0: b7d3 73be e446 463e 6221 85bd 68bc 32be
000000e0: aeea fa3d b038 b53d 265e 47be 6992 f6bc
000000f0: f133 1f3e 5616 60be 597a e43d 9f91 21bd
00000100: 55d1 5fbe 8fc9 403d cf81 16be b969 133e
00000110: 322b 313e f86d 483e 6414 e53d aa05 81be
00000120: 4a05 8fbe 2be6 413e 4d80 023c dc7d 9d3e
00000130: dd6e 4e3e d365 c73d 5118 35be 8781 cbbd
00000140: df2c 2e3e db88 b7bb 68ee 19be 565e 22be
00000150: 2855 07bc af25 6c3e aba3 303d 9b71 383e
00000160: f07d 6f3d 4b63 36be 8a60 1b3e d5bb f3bd
00000170: 59f9 09be 3491 4e3e 1fec 5cbe e6c0 f23c
00000180: 64ba c93d 9bf5 d7bd e714 19bd ac5a 09be
00000190: 12e7 2abe 2ad0 a43d d88a 063e bcb8 a83c
000001a0: 83ed 0c3e cddf 193d 9eee 1f3e d384 3a3e
000001b0: 8a2b a63d 4d50 3d3e 2f9c 0c3d 62e3 053e
000001c0: 89a6 823d 20da 5cbd b84c b5bd a17e d2bd
000001d0: c86e f5bd a47a 1b3e ec3a 00be 871a 7cbe
000001e0: f48b debd 4635 8abd e555 15be c803 433e
000001f0: d348 e2bd bc03 3e3d 9458 0ebe 68b2 cdbd
00000200: 3b67 8e3c f34b eabd 6ba6 2a3e 3c23 cd3d
00000210: 33a3 f4bd b0e2 37be 309a 0c3e bad9 93bd
00000220: bb6a 263e 46c2 533e 055e 20be 26e2 34bd
00000230: 4582 573b 29a6 4d3e 9bcc fc3d 261a 78bc
00000240: 9e9f b3bd 9e81 dc3d 7dc4 df3d cce9 5e3e
00000250: 116d fc3d 4264 133d 5336 ff3d 71e6 11be
00000260: c60a ff3d 7246 a73d 2897 1cbd 2b84 0d3d
00000270: c519 05be 56e9 3b3e 6e4e 10be 6a71 9dbd
00000280: 14ed 3a3c 3864 b4bd 8b4f 27be d1a9 f5bc
00000290: 854b b4bd 1211 193e fee9 e33a 6f78 1f3e
000002a0: 509b 153e ca63 08be 5eda 1ebe 16bb 02be
000002b0: 8089 f43d e34a a5bd c852 163e aba8 14be
000002c0: 1346 f6bd 7514 103e 0dfc 8bbd 4db7 073e
000002d0: 6347 213e 4f6c 223e 0443 2c3e ef4d 3ebd
000002e0: 514e 3abe f28a 15be 1bf9 063e b97c 3e3e
000002f0: 17ba 23be ab4f 653e 6351 e0bc e627 c03b
00000300: c6e7 a1bd 8474 61bd 5089 533d 20c3 f33d
00000310: c6f5 eebc c4b6 1dbd 9da2 dc3d aa2c 943d
00000320: 9679 1e3e e4be d63d 27d2 113e 59a8 acbd
00000330: 3111 dd3d 55d4 9ebe 6eab 503e 16b8 9a3d
00000340: 5d44 be3d b9ed b7bd ba4c 823e e2e6 7c3e
00000350: 3a00 d4bd 27fa 58bd a374 a6bd 842b 40be
00000360: 2264 6fbe 9141 34be 75e4 633e 262b a33d
00000370: 21b2 2f3e d7e4 1f3e f0ab 683d 4dc4 a8bd
00000380: fa66 adbd 5f10 1f3c d515 543c 70a1 223e
00000390: 49b8 72be cdd1 4abe d374 10be ba04 5bbe
000003a0: 6bc0 8ebd 0c47 853e 2934 8b3e 1dfe 213e
000003b0: 01f7 edbd 68ca 9bbd 029d 87bd bb48 5a3d
000003c0: 5bc5 37be e2a2 a83d 29fd bbbd ea2c 04be
000003d0: 84c2 4a3e a1e5 fdbc e384 d03c eed1 43bd
000003e0: bb3b 04be 6809 7cbe 2fb6 d53d a186 d03d
000003f0: 93aa abbd 569f 25be d6f4 ff3d a9c0 f2bd
-0.23613879 -0.19247106 -0.1271102 -0.14450829 0.011181328 0.016569834 -0.09951849 -0.13464239
0.11591405 0.08085373 0.04607372 -0.06688689 0.20904234 0.2519287 0.12891927 -0.057396792
0.13067159 -0.24843569 -0.14896396 -0.1991742 -0.16777503 -0.18559888 -0.17243327 -0.22863337
0.18856217 0.071458 -0.08174808 -0.11243779 0.13938288 0.051779035 -0.15856168 0.14453171
0.11682454 0.004940505 -0.08373581 -0.19967714 -0.1375604 -0.17647605 0.110720985 -0.09513718
0.109796286 0.24999201 -0.038615406 -0.07647398 0.14466867 0.041410916 0.18860473 0.23418897
-0.1539337 0.12456095 0.08504404 0.1521 -0.23811232 0.1936298 -0.06500508 -0.17454684
0.12251793 0.08848703 -0.19469509 -0.03009911 0.15547158 -0.2188352 0.111561485 -0.039445516
-0.21857198 0.04706722 -0.14697956 0.14395799 0.17301634 0.195732 0.1118553 -0.25199634
-0.27933723 0.18935458 0.00796516 0.30760086 0.20159478 0.09736218 -0.17685057 -0.09936815
0.17009304 -0.0056010312 -0.15032351 -0.15856299 -0.008260049 0.2306125 0.043124836 0.18012087
0.058469713 -0.17811315 0.15173545 -0.119010605 -0.13474025 0.20172578 -0.21574448 0.029632997
0.09850004 -0.105448924 -0.03737345 -0.13413495 -0.16689709 0.08047517 0.13138902 0.0205959
0.13762479 0.03756695 0.15618369 0.18214731 0.08113773 0.18487664 0.034328636 0.13075021
0.0637942 -0.053918958 -0.088525236 -0.10278059 -0.119840205 0.15183502 -0.12522477 -0.24619494
-0.10866538 -0.06748442 -0.14583547 0.19044411 -0.11049046 0.04639028 -0.13900977 -0.10043794
0.017383208 -0.114402674 0.16665046 0.10016486 -0.1194519 -0.17957568 0.13730693 -0.072192624
0.16251652 0.20679578 -0.15660866 -0.044160984 0.0032884043 0.20082916 0.12343713 -0.015142953
-0.08770679 0.1076691 0.10926149 0.21768874 0.1232549 0.035984285 0.124615334 -0.14248063
0.12453227 0.08167733 -0.03823009 0.034549873 -0.12998112 0.1835073 -0.14092419 -0.07687648
0.011409063 -0.08808178 -0.16338937 -0.029988201 -0.08803467 0.14947918 0.0017388461 0.15573286
0.14610028 -0.13319317 -0.15512988 -0.1276668 0.119402885 -0.08070924 0.14680016 -0.14517467
-0.12025084 0.14070304 -0.06835184 0.13253517 0.15749888 0.15861629 0.1682244 -0.046461042
-0.18193938 -0.14603785 0.13180964 0.18602265 -0.15988956 0.22393672 -0.027382558 0.0058641313
-0.079055354 -0.05504276 0.051644623 0.119024515 -0.029169928 -0.038504377 0.107732035 0.072350815
0.15476069 0.10485628 0.14240323 -0.08430547 0.107942946 -0.3102137 0.20377895 0.07554643
0.09290383 -0.08980889 0.25449163 0.2469745 -0.10351606 -0.05297294 -0.081277154 -0.187666
-0.23378041 -0.17603137 0.22255118 0.07967214 0.17157795 0.15614639 0.056804597 -0.082405664
-0.08466907 0.009708493 0.012944658 0.15881896 -0.23703112 -0.19806595 -0.14107065 -0.21388522
-0.069702946 0.26030767 0.27188233 0.15819593 -0.11619378 -0.07606965 -0.06621744 0.053292017
-0.17946379 0.082341924 -0.09179146 -0.12907758 0.19800764 -0.030993285 0.02545399 -0.047807626
-0.1291341 -0.24612963 0.104351394 0.101819284 -0.08382144 -0.16174063 0.124978706 -0.11853153

fc2.bias f4 [10]
00000000: b8a8 9a3d 72b3 123e bc30 9cbd 7e1b 1cbe
00000010: 05b0 6bbd a0ff 6abd 6870 c8bc 6f17 66bd
00000020: 1799 4e3e 3d95 9b3d
0.07551712 0.14326265 -0.07626483 -0.15244862 -0.057540912 -0.05737269 -0.024467662 -0.05617469
0.20175587 0.07596824
